SubRecommender/lowDWeights.npy (npy, 80512 bytes, 1 tensors)

array f8 [5027, 2]
0	0x4019e5053eee3d84	6.4736528237257325
1	0xc02381aeade96e00	-9.753285822625003
2	0x4025653e7109d555	10.697742016268117
3	0xc0234f5bcb3b4fdd	-9.65499720667861
4	0x402506418cc012a8	10.512218855329891
5	0xc02428f9e59d8e14	-10.080031562311923
6	0x4024850ad3cfcf84	10.259848231427675
7	0xc02596a21c3cf05b	-10.79420555347331
8	0x40216b1a4bedf384	8.709185002133161
9	0xc01af807332f69c9	-6.742214965599893
10	0x40241e0fde929d36	10.058714824101667
11	0x400094350c0c1445	2.0723668042360566
12	0x40252c841a5d2e81	10.58694536578628
13	0xbfe7d3e47da85699	-0.7446157888650361
14	0x4025250e95ccd531	10.572376900915147
15	0xc023532479d2fcf4	-9.662387663846381
16	0x40254b14748535d4	10.646640435467738
17	0xc0238aef45768356	-9.771356745449946
18	0x402539174a9754b7	10.611505824063313
19	0xc0238b856a8d8a03	-9.77250225999615
20	0x4025428e8dd8cd85	10.629993851390063
21	0xc02389d1a1fd13cb	-9.769177496093013
22	0x402528660b80ccac	10.578903541061969
23	0xc0236ec304e59437	-9.716331627869392
24	0x401ef8eb5169f616	7.743085167019236
25	0xc015bddc92e56d34	-5.435411734822356
26	0x4020b266d9be5e69	8.34844093750799
27	0xc01ee72691ddc3ca	-7.725733069572877
28	0x40254263f456f7f8	10.629668841949737
29	0xc02363d5819e45c5	-9.694988298960093
30	0x4023275452f9901a	9.576815216984006
31	0xc013611bc84c0fec	-4.844832543985813
32	0x4024fbab8ca29fc5	10.491543192721915
33	0xc0230d4ed92f4a93	-9.525992190382828
34	0x40217dd7931d48ef	8.74578532917482
35	0xc020cb2824765bed	-8.396790637443667
36	0x401f7674953b7cd9	7.8656791036184694
37	0xc000fa30036de169	-2.1221618907840605
38	0x401ac2194db03f82	6.689549650080041
39	0xc01371518d92e9f1	-4.860662662593755
40	0x4024f2a14d745ae0	10.473886890843858
41	0xc00a84d39f1d7b67	-3.3148567610618787
42	0x40242885b80c2678	10.079145194514453
43	0xc012487dbc59c68d	-4.570792143802135
44	0x4021c0722cb34d61	8.875871083152278
45	0xc0204cbe6f28c7cb	-8.14989039776619
46	0x40220e48f534a189	9.02790037410229
47	0xc00750d10cb1d1ee	-2.914461230446469
48	0x402584d7d9433484	10.759459294751885
49	0xc02431fc4675f3af	-10.09762783231585
50	0x40227d1c69e47fa7	9.244357403891469
51	0xc0015e24e505bee2	-2.170968808400958
52	0x402532ee7175f180	10.599475427291281
53	0xc02373875b6d3866	-9.725642067987973
54	0x4025849723ae1d50	10.758965601925098
55	0xc023ffba98abc933	-9.99947049233433
56	0x402496a7bee0cee1	10.294248547499082
57	0xc0071b0a990562bd	-2.888203807331904
58	0x4025342e8977e62e	10.601917549024702
59	0xc023177bc2a991d1	-9.545866091918386
60	0x4020d094b73b3444	8.407384611107894
61	0xbffa7f8b96a20b86	-1.6561389812565905
62	0x40132b7b92f71d93	4.792463585217223
63	0x401aa53bfc21ae12	6.6613616366917245
64	0x40179ebe33ba8de7	5.905022438298579
65	0xc02896354ac0e437	-12.293375335737535
66	0x4020c1ab971edc25	8.378262255208094
67	0x40037f82430087e1	2.4372601732766133
68	0x4026cb10ce764dee	11.396612598363358
69	0xc022087502001a5d	-9.01651769877679
70	0x401f6b34b3476855	7.8546932232221325
71	0xc01e7727c7ef5331	-7.6163626899549834
72	0x40156e40a3b932a8	5.35766845529421
73	0x401461b42233b5f9	5.09541371765726
74	0x40145f6182bb59f0	5.093145411191003
75	0x40167199f2d750b6	5.610938829795648
76	0x4020a0fe0a896348	8.314438180228208
77	0xc01b10ee3e61a668	-6.766533827505192
78	0x401fa4bb4aab67bd	7.910870711051698
79	0xbffcb9bc9e4a8b46	-1.79534589607711
80	0x40209c043418eb9e	8.304719570200003
81	0xc0247bbf257e996f	-10.241692706779501
82	0x4021acd42a292563	8.837556188128195
83	0xbfd7bf1a86762db3	-0.37103903895396256
84	0x40223495537fbeea	9.102701768249478
85	0xc016fb8efbdeb937	-5.745662627667392
86	0x4024c114b5a58ae6	10.377111126382669
87	0xc0236be2ded12f23	-9.71071525863187
88	0x4024a453a3bee175	10.32095061974608
89	0xc01ef710edae0234	-7.741275514360087
90	0x4022a1046eb203b1	9.314486941557194
91	0xc0153daf74f9e325	-5.310239627601537
92	0x40214078489be24d	8.625917691258246
93	0xc015867cd3889372	-5.3813355495557165
94	0x4025b6793e497ec8	10.856393763038241
95	0xbff1cb153a6673b7	-1.1120807915933548
96	0x40208854911c6e3f	8.266270193787134
97	0xc0031ec3109bf987	-2.3900204942321497
98	0x40250a50c6dc8ae2	10.52014752809686
99	0xc02358f8e4015f4c	-9.673773884933006
100	0x4024f71a95ef880c	10.482624707688977
101	0xc0234f332a1f5a65	-9.654687229468616
102	0x401a2d4d01c5dc3f	6.544239070607602
103	0xc02791f3cdac7ab2	-11.785063197426414
104	0x4014070f6691ca4c	5.006894686363534
105	0x3fdd47c922607afd	0.4575064502441107
106	0x401810434a881d04	6.0158816953255645
107	0x3fe084fbf3a604b1	0.5162334212074225
108	0x402517181afb5903	10.545105784589856
109	0xc023736e6440b77c	-9.725451596164696
110	0x40244d35e0125ebe	10.15080166076893
111	0xc0126644a1a9ad5b	-4.599871183377526
112	0xc01426594ccd82be	-5.037450027507189
113	0xc0115b38c5356ecb	-4.339083749185828
114	0x4024a45cef56ba77	10.321021537148438
115	0xc01ef4d7e01a35bb	-7.739104749297833
116	0x401e45775118c4b7	7.567837969910378
117	0x4014d9433539fd75	5.212170440353806
118	0x40217de515e39d61	8.745888408694272
119	0xbff4dbabc9aabf7a	-1.3036306264511652
120	0x402114e2479d61ba	8.540788877450598
121	0xc0261962252fc8ef	-11.049576913912885
122	0xbff9b01fbba48bf6	-1.6054990129275644
123	0xc01abf334f43c4f7	-6.686719168196979
124	0x400a7a63d5d77b7c	3.3097607332596777
125	0xc029996246f02735	-12.799577919784136
126	0x3fc1f23d2e586aae	0.14020504725416089
127	0xc019dc8cfab50b2c	-6.465381543445613
128	0xc021deb6602b9542	-8.93498516590137
129	0xc005c0f4e8925dfd	-2.719217125860949
130	0x4023382c72e92d40	9.609714117969475
131	0xc024b7c39debe047	-10.358914313357799
132	0x402290f929617131	9.283150952477259
133	0xc001f4bd010ecb39	-2.2445011217727395
134	0x401581444c14b2b8	5.376237095607102
135	0xc026d0c3e8adc478	-11.407744666301582
136	0x3ff6bdf227f2ef68	1.421373516131064
137	0x401e388a43c82a17	7.5552149382515585
138	0x40278c95e7b19c42	11.774581184798198
139	0xc01c9e4cb8985ca0	-7.154589542674472
140	0x40279b75a88bc4bb	11.80363203722151
141	0xc01e8ff2a0772eae	-7.640573985361398
142	0x40219fd24fb20105	8.812151422957422
143	0x3ff1ffff17510472	1.1249991331863183
144	0x3ff5d80a7d554e14	1.3652443786458024
145	0xc025ee96acdebdc1	-10.96599331110963
146	0x4023e32578db416c	9.943645264401049
147	0xc005ca4b37b813a3	-2.723776278786731
148	0x4021d6e5f936ee1c	8.919723308520638
149	0xc02864fa348dc69d	-12.197221414858456
150	0x40227b2e197d9ef9	9.240586086830705
151	0x3ff6170b9bad074d	1.380626304730373
152	0x401e6ee408196629	7.608291746664272
153	0xc0214959ec764d2d	-8.643264188233468
154	0xc0071f52e2e3c05b	-2.8902948117975433
155	0xc002128ba4c47fc6	-2.2590554115740558
156	0x4027b20557b60885	11.847697010966167
157	0xc01f65b68cf41a74	-7.849329187773595
158	0x4024bc7028fa074b	10.368043213387542
159	0xc0256440e645b9ff	-10.695807643901388
160	0x401cf0e615fdcfa1	7.235252708069226
161	0xc0274079e6890ce6	-11.625930027227195
162	0x4011ad23edb09b4b	4.419082368759358
163	0x40118d916b5d671e	4.388250043464522
164	0x4003f36db0ab3f40	2.4938615610371073
165	0xc016de49b1075160	-5.717077985831878
166	0x4025495e9748ae43	10.643299796697766
167	0xc02331cbf0e7ee0c	-9.597259071647407
168	0x3f7cf1573969c20d	0.007066097945980687
169	0xc002e798a773d657	-2.3630841333604553
170	0x4020b585f6022bf0	8.354537666096775
171	0xc012bc9a573781d6	-4.684182513010873
172	0x4023c80bc6062964	9.89071482491699
173	0xc0053662f56908c5	-2.651555936115161
174	0x40207941eb64b6b3	8.236831050914907
175	0xc023117f6b55d51c	-9.534175256946178
176	0xbfecf2d02dda1c21	-0.9046402831598962
177	0xc0267c98cbf8ec8d	-11.243353246818765
178	0x402070810ea5261f	8.219734628352908
179	0x3fe8d9b04e7dad45	0.7765733273530847
180	0x4024a06dbc30b9f8	10.31333721251302
181	0xc022fa6d1f3247a4	-9.489113783729245
182	0x402545f8dd522e46	10.636664310724097
183	0xc022fb030af5a2a6	-9.490257589802535
184	0x40213a50a9b258fe	8.61389665891738
185	0x3ff153d2412f3de0	1.082964186312772
186	0x40255890e4a25445	10.672980446639608
187	0xc023309d97e31ef8	-9.594952341532448
188	0x402237bb62e0eaf4	9.108851518588814
189	0x40055cb59c28c95d	2.6702682685801578
190	0x4020f19a25d0d7f6	8.471879178756335
191	0xc0218d7535a8bf5d	-8.776284863328039
192	0x401509d4a65fb459	5.259600257483805
193	0x4013a0c7c6965ad8	4.90701208393758
194	0x4024e34ea9055d01	10.443959504990291
195	0xc022ff54626ceb75	-9.498690677448147
196	0x402383a1d615f71e	9.75709408777362
197	0xbffeed33c1be3771	-1.9329106872641797
198	0x40209921b5abd71a	8.29908530924472
199	0xc019784346ca27c7	-6.367444139565072
200	0xc00c470ca56736ab	-3.534692089283302
201	0xc0253d94fcccfceb	-10.620277309439606
202	0x402521ef1f98a156	10.566277491933459
203	0xc023244049855969	-9.570802972343431
204	0x4024c25b9ae6497d	10.379605141268934
205	0xc01012ad25e27b0a	-4.0182386321528245
206	0x402513b43fbe095b	10.538484565685101
207	0xc007b304effc457c	-2.9624117611753586
208	0x400f8eb5b87e72f8	3.944682542189522
209	0x401463906eab97a1	5.097230653021968
210	0x4022d90fe161d6ce	9.423949282830474
211	0xc02248399e2232cf	-9.141064588236445
212	0x401e1a5e018107de	7.525749228954707
213	0xc02629f4c46f01e7	-11.081945551443779
214	0x401d2121af681da0	7.282355061273307
215	0x3fe61c4f98ebca58	0.6909559237231617
216	0x40179989c8efda30	5.8999396702188704
217	0x3ffa4674c7e248e5	1.642201214596349
218	0x4023052e2cdacc91	9.510117913922189
219	0xc015258a797e1e00	-5.286661051104147
220	0x401db7090eb49c65	7.428745488904586
221	0xbffe73ccfed499f1	-1.9032716707530393
222	0x401ffacb07a515ae	7.994915122462244
223	0xbffb8b4e769221f9	-1.7215103751824457
224	0x401f71dc4a3d96a9	7.861191902169289
225	0xc0253a14c906c03a	-10.613439828943331
226	0x4012826c2a181f29	4.6273657395575265
227	0xbfecb4e2780f3156	-0.8970806450757134
228	0x3ff890fe81fb2d9f	1.5353989674939397
229	0xc029327cafcdf7ea	-12.598607534306172
230	0x4022064972375739	9.01227909970804
231	0xc015e5fded98a70f	-5.474601471368955
232	0x4021eaae9e2a5a6a	8.958363478345934
233	0xc015e425eb0cdf02	-5.472800896320907
234	0x4026cb1ce1897acb	11.396704719574151
235	0xc0220676e5bb1da0	-9.012625865069651
236	0x401f6bbda277d6cc	7.855215586246867
237	0x3fe4080affc3604a	0.6259818072676435
238	0x4024c6a6198c919b	10.387985990914606
239	0xc0235b4aa1de0788	-9.678303774216843
240	0x401ff55bac9fe80e	7.989607522258678
241	0xc01f23d9c1a65234	-7.785010362411914
242	0x4017e49d3ff9d562	5.9732561107860835
243	0xbfd895a87be40394	-0.38413440798472576
244	0xc013bed27c77cfd0	-4.936349816143732
245	0xbfff77ba30544fbb	-1.966730297838679
246	0x401c590d6ac6dd94	7.086965244663038
247	0xc006f66d3bbd768b	-2.8703255335993325
248	0x4021bf042a265ee5	8.8730786487426
249	0x3ff4283b348c42d2	1.25982208754083
250	0x3ff14d69fc50f5e0	1.0813999038795075
251	0x40185350fcbc9031	6.081363629349696
252	0x401238639cf541c1	4.555067493886271
253	0xc0294073350dc424	-12.625878961496774
254	0x4026e4f8d39a6e55	11.447210896111907
255	0xbff35f39c87a7d85	-1.2107484656515635
